…
µ¬ì¡°: Convoluitional Layer (3x3 filter, stride=1, padding=True) Max-Pooling Layer (2x2 filtter, stride=2) 1x1 Conv Layer (1x1 filter, stride=1) Fully Connected Layer (4096 &gt; 4096 &gt; 1000) íŠ¹ì§•: ëª¨ë“  ë ˆì´ì–´ì— 3x3 í•„í„° ì ìš© 1x1 Conv Layer ì‚¬ìš© ë‹¤ì„¯ì¥ì˜ Max-Pooling Layer ì‚¬ìš© Â¶ì½”ë“œ 123456789import torchimport matplotlib.pyplot as pltimport numpy as npimport torch.nn.functional as Ffrom torch import nnfrom torchvision import datasets, transforms, modelsmodel = models.alexnet(pretrained=True)model 1234567891011121314151617181920212223242526AlexNet( (features): Sequential( (0): Conv2d(3, 64, kernel_size=(11, 11), stride=(4, 4), padding=(2, 2)) (1): ReLU(inplace) (2): MaxPool2d(kernel_size=3, stride=2, padding=0, dilation=1, ceil_mode=False) (3): Conv2d(64, 192, kernel_size=(5, 5), stride=(1, 1), padding=(2, 2)) (4): ReLU(inplace) (5): MaxPool2d(kernel_size=3, stride=2, padding=0, dilation=1, ceil_mode=False) (6): Conv2d(192, 384, kernel_size=(3, 3), stride=(1, 1), padding=(1, 1)) (7): ReLU(inplace) (8): Conv2d(384, 256, kernel_size=(3, 3), stride=(1, 1), padding=(1, 1)) (9): ReLU(inplace) (10): Conv2d(256, 256, kernel_size=(3, 3), stride=(1, 1), padding=(1, 1)) (11): ReLU(inplace) (12): MaxPool2d(kernel_size=3, stride=2, padding=0, dilation=1, ceil_mode=False) ) (classifier): Sequential( (0): Dropout(p=0.5) (1): Linear(in_features=9216, out_features=4096, bias=True) (2): ReLU(inplace) (3): Dropout(p=0.5) (4): Linear(in_features=4096, out_features=4096, bias=True) (5): ReLU(inplace) (6): Linear(in_features=4096, out_features=1000, bias=True) )) AlexNetì˜ êµ¬ì¡°ê°€ ë‚˜ì˜¨ë‹¤. 12for params in model.features.parameters(): params.requires_grad = False ì—¬ê¸°ì—ì„œ feature exrtactionë¶€ë¶„ì€ ì´ë¯¸ train ëœ ë¶€ë¶„ ì´ë¯€ë¡œ, ë”°ë¡œ ì—­ì „íŒŒë¥¼ í•˜ëŠ” ê³¼ì •ì—ì„œ gradientë¥¼ ê³„ì‚°í•  í•„ìš”ê°€ ì—†ë‹¤. ë”°ë¼ì„œ ìœ„ì˜ ì½”ë“œê°€ ê¼­ í•„ìš”í•˜ë‹¤. ê·¸ë¦¬ê³  ìš°ë¦¬ê°€ í•  ê²ƒì€ ë”± ë‘ê°œ, ê°œë¯¸ì™€ ë²Œì„ êµ¬ë³„í•˜ëŠ” ê²ƒì´ë¯€ë¡œ https://github.com/jaddoescad/ants_and_bees.git ë§ˆì§€ë§‰ outì„ 2ë¡œ ë§ì¶œ í•„ìš”ê°€ ìˆë‹¤. 1234567import torch.nn as nnn_inputs = model.classifier[-1].in_featureslast_layer = nn.Linear(n_inputs, len(classes))model.classifier[-1] = last_layermodel 1234567891011121314151617181920212223242526AlexNet( (features): Sequential( (0): Conv2d(3, 64, kernel_size=(11, 11), stride=(4, 4), padding=(2, 2)) (1): ReLU(inplace) (2): MaxPool2d(kernel_size=3, stride=2, padding=0, dilation=1, ceil_mode=False) (3): Conv2d(64, 192, kernel_size=(5, 5), stride=(1, 1), padding=(2, 2)) (4): ReLU(inplace) (5): MaxPool2d(kernel_size=3, stride=2, padding=0, dilation=1, ceil_mode=False) (6): Conv2d(192, 384, kernel_size=(3, 3), stride=(1, 1), padding=(1, 1)) (7): ReLU(inplace) (8): Conv2d(384, 256, kernel_size=(3, 3), stride=(1, 1), padding=(1, 1)) (9): ReLU(inplace) (10): Conv2d(256, 256, kernel_size=(3, 3), stride=(1, 1), padding=(1, 1)) (11): ReLU(inplace) (12): MaxPool2d(kernel_size=3, stride=2, padding=0, dilation=1, ceil_mode=False) ) (classifier): Sequential( (0): Dropout(p=0.5) (1): Linear(in_features=9216, out_features=4096, bias=True) (2): ReLU(inplace) (3): Dropout(p=0.5) (4): Linear(in_features=4096, out_features=4096, bias=True) (5): ReLU(inplace) (6): Linear(in_features=4096, out_features=2, bias=True) )) ì´ì œ í›ˆë ¨ì‹œì¼œ ë³´ì. 123456789101112131415161718192021222324252627282930313233343536373839404142434445464748===================================================epoch: 1training loss: 0.03956, acc: 0.573770validation loss: 0.01909, acc: 0.836601===================================================epoch: 2training loss: 0.03207, acc: 0.733607validatio
…
